train_rvc/b5f282974f6e7c8bd3b6b37fdde024fc.npz (npz, 251402 bytes, 2 tensors)

hidden f4 [65, 768]
0	0xbeabc48a	-0.33548385
1	0xbf8197d0	-1.0124454
2	0xbf834b86	-1.0257423
3	0xbf8c945d	-1.0982777
4	0x3ea9bcc7	0.33151838
5	0xbdb432b7	-0.087987356
6	0x3ec10344	0.37697804
7	0xbea4dcc6	-0.32199687
8	0x3ead2bdb	0.33822522
9	0x3fbe68c6	1.4875724
10	0xbe2aad1a	-0.16667596
11	0xbd8512c3	-0.06497719
12	0x3f3c3f82	0.73534405
13	0xbf1aa3d9	-0.6040626
14	0xbf752f76	-0.95775545
15	0x3fb1b480	1.3883209
16	0x3fa62719	1.2980682
17	0xbf016b2a	-0.50554144
18	0xbf4f0a3f	-0.8087501
19	0xbf631cc0	-0.88715744
20	0x3f983cc2	1.1893542
21	0x3ebd3b97	0.36959526
22	0xbfa390bc	-1.2778544
23	0x3fec8993	1.8479484
24	0x3d578762	0.052619345
25	0x3eee95c9	0.46598652
26	0x3f357d0f	0.7089395
27	0xbe266523	-0.16249518
28	0xbf98b68c	-1.1930709
29	0xbd9b14f0	-0.07572353
30	0xbdc44521	-0.09583498
31	0xbddf5f3a	-0.10906835
32	0x3e9a67bf	0.30157277
33	0x3f09b2e8	0.53788614
34	0x3f383304	0.71952844
35	0xbed0219b	-0.4065064
36	0x3e9505fd	0.2910613
37	0x3b380648	0.0028079916
38	0x3fa21654	1.2663064
39	0xbed11e91	-0.40843633
40	0xbe8699bc	-0.26289165
41	0xbdea3bb6	-0.1143717
42	0x3f3ed717	0.7454695
43	0xbf1ad7f4	-0.6048577
44	0x3e26ee5a	0.16301861
45	0x3c30a2f4	0.010781039
46	0x3f00a034	0.5024445
47	0x3f0a193f	0.5394477
48	0x3f384acf	0.7198915
49	0x3e9a193d	0.3009738
50	0xbfe81a7a	-1.813308
51	0x3e0f324d	0.13984032
52	0xbfb53c11	-1.4158956
53	0xbf842015	-1.0322291
54	0x3e4a1948	0.19736207
55	0xbf8b7db8	-1.0897741
56	0xbecae53e	-0.39628023
57	0x3e302a58	0.17203653
58	0xbf48cde5	-0.7843917
59	0xc00d7e03	-2.2108161
60	0xbed3a9b5	-0.41340414
61	0x3e8484cd	0.2588257
62	0x3dd47cc0	0.10375357
63	0x3f1d79c2	0.6151391
64	0x3de8d22c	0.11368212
65	0x3fb548ed	1.416288
66	0xbeb9a0af	-0.36255404
67	0x3ebd8c20	0.3702097
68	0xc01e3d32	-2.472485
69	0xbfde384c	-1.736093
70	0x3f4cc0e3	0.7998182
71	0x3a914c25	0.0011085315
72	0xbebf6aaa	-0.37386066
73	0x3f542b2c	0.82878375
74	0x3d81002b	0.0629886
75	0x3e65f852	0.22458008
76	0x3f603905	0.87587005
77	0xbe8d28c0	-0.27570152
78	0x3ec97f80	0.39355087
79	0xbb986630	-0.0046508536
80	0x3f449228	0.76785517
81	0x3f42cfb6	0.7609819
82	0xbe3b56ac	-0.18294781
83	0xbb470c9a	-0.0030372501
84	0x3e1ba754	0.1520055
85	0xbfad8c28	-1.3558397
86	0x3eebfcc7	0.4609129
87	0xbf2dc0b8	-0.6787219
88	0xbe138b98	-0.1440872
89	0x3f8174e7	1.0113801
90	0xbed7358c	-0.4203304
91	0x3fa5334c	1.290628
92	0x3e82fb36	0.25582284
93	0xbf54edf1	-0.8317557
94	0x3d3337d9	0.043754432
95	0x3d192ea0	0.03739798
96	0x3fbf89b6	1.4963901
97	0x3e3aad3d	0.18230148
98	0x3e14e9b4	0.14542276
99	0xbe5da8b8	-0.21646392
100	0x3f8d6bf9	1.1048576
101	0xbe350647	-0.17678176
102	0x4098f444	4.7798176
103	0xc014a5d6	-2.3226218
104	0x3f580ba6	0.84392774
105	0x3fd3473d	1.6506115
106	0x3fe48ff5	1.7856432
107	0x3ca6ca6d	0.020360196
108	0x3e955286	0.29164523
109	0xbe975bdd	-0.29562274
110	0xbeee1a22	-0.46504313
111	0xbec5d74c	-0.3864082
112	0xbf9e110a	-1.234895
113	0x3ea6b343	0.3255864
114	0xc0f24e95	-7.5720925
115	0xbf1e0701	-0.6172944
116	0xbd64a60c	-0.055822417
117	0xbf4fd239	-0.8118015
118	0x3eb60004	0.35546887
119	0xbfe81c19	-1.8133575
120	0xc016a088	-2.353548
121	0x3eff8752	0.4990793
122	0x3f6e1b51	0.9301043
123	0xbddefdb2	-0.10888232
124	0xbee633f3	-0.4496151
125	0xbe1fb38e	-0.15595838
126	0xbeb920d9	-0.36157873
127	0x3ea6caaa	0.32576495
128	0xc00a018c	-2.1563444
129	0x3f845c0a	1.0340588
130	0xbda0934f	-0.07840597
131	0xbfba5748	-1.4557886
132	0xbf997c94	-1.1991143
133	0xbfde1012	-1.7348654
134	0x3e813e46	0.25242823
135	0x3f4bf390	0.7966852
136	0xbfcd6b8a	-1.6048443
137	0x3ea137ea	0.31487972
138	0x3eb3c679	0.3511236
139	0x3f19d1b6	0.6008562
140	0xbf6ce419	-0.9253555
141	0xbfe5f81c	-1.7966342
142	0x3f589bac	0.84612536
143	0xbeac0e99	-0.33604887
144	0x3eb84cef	0.35996196
145	0xbea620fe	-0.32447046
146	0x3f9885ec	1.191587
147	0xbe07afa6	-0.13250598
148	0xbf8bea3a	-1.0930855
149	0xbf1dd8ed	-0.6165913
150	0xbf56070f	-0.8360452
151	0xbe7e9c67	-0.2486435
152	0x3fcc2417	1.5948514
153	0x3f5ae851	0.85510737
154	0xbe12c2ca	-0.14332119
155	0xbf337ec9	-0.70115334
156	0xbfab70fa	-1.3393853
157	0xbed1b641	-0.4095936
158	0xbef50127	-0.47852442
159	0x3da6da9f	0.081471674
160	0xbdbd61c2	-0.092471614
161	0x3ec3f671	0.38273957
162	0xbe10e5f8	-0.14150226
163	0xbeb005b0	-0.3437934
164	0xbe470bef	-0.19438146
165	0xbf66adce	-0.90108955
166	0x3dda9ff2	0.106750384
167	0x3f4c782d	0.79870874
168	0x3ee3d27c	0.44496524
169	0x3e96ce21	0.2945414
170	0x3e6b1e18	0.22960699
171	0x3e529a88	0.20566761
172	0x3f244e1e	0.641817
173	0x3ce97cfd	0.028501982
174	0xbe4d1b98	-0.20030057
175	0xbe274437	-0.16334616
176	0x3eb92270	0.36159086
177	0x41015f25	8.085729
178	0x3f37267b	0.7154309
179	0xbf2962c8	-0.66166353
180	0x3e90c994	0.28278792
181	0x3f22cf96	0.63598
182	0x3f7d074d	0.98839265
183	0xbedcede6	-0.43150252
184	0x3f705aa7	0.93888324
185	0xbefab5e0	-0.48966885
186	0x3e20a799	0.15688933
187	0xbf037da1	-0.5136357
188	0x3ee47049	0.44616917
189	0x3f98a4e6	1.1925323
190	0x3f22a044	0.63525796
191	0x3f2d70dd	0.6775034
192	0xc052fd26	-3.296701
193	0x3ec84835	0.3911759
194	0x3dae55fd	0.08512495
195	0x3e429a0c	0.19004077
196	0xbec45629	-0.38346985
197	0x3ee8550c	0.45377386
198	0x3dc41c02	0.095756546
199	0xbf9c97b9	-1.2233802
200	0x3f2b45d0	0.669034
201	0x3eba7bc2	0.36422545
202	0x3e5d2139	0.21594705
203	0xbdb27981	-0.08714581
204	0xbf9f79cb	-1.2459043
205	0xbe35c18a	-0.1774961
206	0xbeda5e2d	-0.42649975
207	0x3d5f3f3e	0.05450367
208	0xbf3aff75	-0.73046046
209	0xbf49855a	-0.78719103
210	0xc01d9178	-2.4620037
211	0x3f443bca	0.7665373
212	0x3f95a730	1.1691647
213	0xbfb951b6	-1.4478061
214	0xbf1c5400	-0.61065674
215	0x3f1df6b1	0.61704546
216	0xbd808dd0	-0.062770486
217	0xbe468c29	-0.19389404
218	0xbf8c1fa7	-1.094716
219	0xbf7c16af	-0.9847211
220	0xbf4e0299	-0.80472714
221	0x3f616c7d	0.88056165
222	0xbe13a051	-0.14416625
223	0xbc1a3685	-0.0094124125
224	0xbfa4eb63	-1.2884334
225	0xbf333cc3	-0.7001459
226	0xbf1e8418	-0.6192031
227	0xbec951a1	-0.3932009
228	0x3d0a0823	0.033699166
229	0xbe66b667	-0.22530518
230	0xbf472b57	-0.77800506
231	0x3f883261	1.0640374
232	0x3f0c2ac7	0.54752773
233	0xbf96ed6c	-1.1791205
234	0xbf163ba3	-0.5868475
235	0x3fc02802	1.501221
236	0xbcd3c6b0	-0.025851578
237	0xbf623a58	-0.88370275
238	0xbde11609	-0.10990531
239	0x3e85fb32	0.2616821
240	0x3e8b0f28	0.2716
241	0x3d7b7d13	0.061398577
242	0xbec2e65c	-0.38066375
243	0x3e9c1527	0.30484888
244	0xbf511c90	-0.8168421
245	0x3f1d8313	0.6152813
246	0xbe942a57	-0.28938553
247	0xbf929d44	-1.1454244
248	0x3fb8ccf7	1.443755
249	0xbeed7c03	-0.46383676
250	0xbeda9fb9	-0.42699984
251	0xbf3b8c52	-0.73260987
252	0x3ecb24ec	0.39676607
253	0xbf498072	-0.78711617
254	0x3e06b18a	0.13153663
255	0xbf8e773a	-1.1130135

log_mel_spec (column-major) f4 [100, 128]
0	0xc068f22d	-3.6397812
1	0xc0a3cb06	-5.118533
2	0xc0e5dab2	-7.182946
3	0xc0e790b7	-7.2364154
4	0xc0ce0a6a	-6.4387712
5	0xc0d2ac0b	-6.5835013
6	0xc0d5b8e7	-6.678821
7	0xc0d001c1	-6.500214
8	0xc0c194f7	-6.049434
9	0xc0e50017	-7.156261
10	0xc0c18cc5	-6.048434
11	0xc0d83131	-6.756005
12	0xc0c77987	-6.233585
13	0xc0d2ee92	-6.5916224
14	0xc0d26d83	-6.575868
15	0xc0e9964f	-7.299598
16	0xc0daa506	-6.8326445
17	0xc0ccd19d	-6.4005876
18	0xc0d9fa99	-6.8118405
19	0xc0da32e4	-6.818712
20	0xc0c4779c	-6.1396008
21	0xc0db3cab	-6.8511558
22	0xc0b4d203	-5.650636
23	0xc0c7ecd9	-6.247662
24	0xc0cb7edc	-6.359236
25	0xc0bd1182	-5.908387
26	0xc0b60630	-5.6882553
27	0xc0d773a7	-6.7328677
28	0xc0c6d3cb	-6.2133536
29	0xc0c043ea	-6.0082903
30	0xc0a707fb	-5.219724
31	0xc08ae313	-4.340219
32	0xc09aef39	-4.841702
33	0xc09a379b	-4.819288
34	0xc09cbbea	-4.8979387
35	0xc0ab9aee	-5.3626623
36	0xc0b6eac8	-5.71616
37	0xc0b38363	-5.6097884
38	0xc0a7456f	-5.227226
39	0xc0919e96	-4.5506086
40	0xc0940b0a	-4.6263475
41	0xc0996290	-4.7932816
42	0xc0941333	-4.6273437
43	0xc0821740	-4.065338
44	0xc085972e	-4.1747046
45	0xc09d3682	-4.912904
46	0xc08c625a	-4.387006
47	0xc09c4c1c	-4.8842907
48	0xc094c82b	-4.6494346
49	0xc09ac33f	-4.8363338
50	0xc09c49ec	-4.8840237
51	0xc0a08c9d	-5.0171647
52	0xc0a4d975	-5.151545
53	0xc0aed72b	-5.4637656
54	0xc0b65ad1	-5.698586
55	0xc0a60998	-5.188671
56	0xc0b7a2df	-5.7386317
57	0xc0c05040	-6.009796
58	0xc0b843b4	-5.7582645
59	0xc0b09b95	-5.518992
60	0xc0accedf	-5.400253
61	0xc0a503d6	-5.1567183
62	0xc0a0600c	-5.0117245
63	0xc098f7b0	-4.7802353
64	0xc0a8f3b6	-5.27975
65	0xc0a822ba	-5.254239
66	0xc0a7c68a	-5.2429857
67	0xc0aacecd	-5.337744
68	0xc0aa38ee	-5.3194494
69	0xc0b44dec	-5.634512
70	0xc0a917d6	-5.2841597
71	0xc09c8d87	-4.8922763
72	0xc0a56380	-5.168396
73	0xc0a3fc51	-5.1245503
74	0xc0b2bf81	-5.585877
75	0xc0ae2310	-5.44178
76	0xc0afa103	-5.4884048
77	0xc0a793c1	-5.2367864
78	0xc0ace4a3	-5.4029098
79	0xc0a71c49	-5.222203
80	0xc0abf27f	-5.3733516
81	0xc0a4b492	-5.1470423
82	0xc0ac983f	-5.3935847
83	0xc0a3ec7b	-5.1226172
84	0xc0a4a42c	-5.1450405
85	0xc0b072f6	-5.5140333
86	0xc0aa17b9	-5.315396
87	0xc0a442b0	-5.1331406
88	0xc0ad9a11	-5.425057
89	0xc0a29d78	-5.0817223
90	0xc0a03db6	-5.007533
91	0xc09b50aa	-4.8535967
92	0xc0a7c1d4	-5.2424107
93	0xc0b1c279	-5.5549893
94	0xc0a50325	-5.156634
95	0xc0aacaad	-5.3372407
96	0xc0a04411	-5.008309
97	0xc0a8ce5a	-5.2751894
98	0xc0ca0bf0	-6.313957
99	0xc0daa3c8	-6.832493
100	0xc06270b9	-3.53813
101	0xc09f5df7	-4.9802203
102	0xc0c2ecff	-6.09143
103	0xc0bcb63f	-5.897247
104	0xc0b9cef8	-5.8065147
105	0xc0c2044d	-6.063025
106	0xc0cb4189	-6.35175
107	0xc0c512ea	-6.158559
108	0xc0c49c73	-6.144098
109	0xc0c3b9fc	-6.116453
110	0xc0b975f2	-5.7956476
111	0xc0ba35d5	-5.8190713
112	0xc0c3cced	-6.1187654
113	0xc0d16a07	-6.544193
114	0xc0ccec48	-6.403843
115	0xc0da40ee	-6.820426
116	0xc0d109ac	-6.5324306
117	0xc0c7cba3	-6.243608
118	0xc0c6e583	-6.2155166
119	0xc0c7f72e	-6.2489233
120	0xc0cb17d0	-6.346657
121	0xc0d53c89	-6.6636395
122	0xc0be2f28	-5.9432564
123	0xc0b7680f	-5.7314525
124	0xc0b8af47	-5.771396
125	0xc0b124a2	-5.535722
126	0xc0b63487	-5.693912
127	0xc0b5ae9d	-5.677565
128	0xc0ac26d8	-5.3797417
129	0xc0a6b9d3	-5.2101836
130	0xc0a6aea2	-5.2088175
131	0xc09a4658	-4.821087
132	0xc0a40e09	-5.1267133
133	0xc0955ef9	-4.6678433
134	0xc09efb6f	-4.9681926
135	0xc0a2df14	-5.089731
136	0xc0ab7365	-5.3578362
137	0xc0ab05ea	-5.344472
138	0xc0983ef7	-4.757686
139	0xc08ef74f	-4.467689
140	0xc08b7092	-4.3574915
141	0xc08e0582	-4.4381723
142	0xc082a83a	-4.0830355
143	0xc07f5efa	-3.990172
144	0xc08593cf	-4.174293
145	0xc08fcacf	-4.493507
146	0xc0855b5a	-4.1674013
147	0xc090225a	-4.5041933
148	0xc091f152	-4.560708
149	0xc099a615	-4.8015237
150	0xc094f1c9	-4.654515
151	0xc09830ca	-4.7559557
152	0xc0a16484	-5.04352
153	0xc0a9581f	-5.292007
154	0xc0ac7a0b	-5.389898
155	0xc0a76ddf	-5.232162
156	0xc0a9d18a	-5.3068285
157	0xc0b2c29f	-5.5862575
158	0xc0b00af7	-5.5013385
159	0xc0adb013	-5.4277434
160	0xc0a964f1	-5.293572
161	0xc0aa0fee	-5.3144445
162	0xc09c29ba	-4.8800936
163	0xc09be50c	-4.87171
164	0xc0a46795	-5.1376443
165	0xc0a4a1f9	-5.144772
166	0xc0a27e9d	-5.0779557
167	0xc0a4f10b	-5.154424
168	0xc0a82301	-5.254273
169	0xc0a16b7a	-5.0443697
170	0xc09c0ad7	-4.876323
171	0xc0a1fe01	-5.0622563
172	0xc0a10acb	-5.0325675
173	0xc09dbf86	-4.9296293
174	0xc0abd41e	-5.369643
175	0xc0a1f463	-5.0610824
176	0xc0ab7eb9	-5.359219
177	0xc0a0f6d3	-5.03013
178	0xc0a3758a	-5.108098
179	0xc0a3c741	-5.118073
180	0xc09f8049	-4.98441
181	0xc09f7ee7	-4.984241
182	0xc0a14df1	-5.0407643
183	0xc0992006	-4.785159
184	0xc09dd10f	-4.93177
185	0xc0a051d8	-5.0099907
186	0xc0a2a0a4	-5.0821095
187	0xc09e525e	-4.9475546
188	0xc0a474b9	-5.1392484
189	0xc09f8613	-4.9851165
190	0xc0a07067	-5.013721
191	0xc0956cc1	-4.6695256
192	0xc0a25b0c	-5.073614
193	0xc0a2e6a3	-5.090654
194	0xc09bd708	-4.869999
195	0xc09cd707	-4.9012485
196	0xc09d3f30	-4.9139633
197	0xc0a9c726	-5.30556
198	0xc0ce77df	-6.4521327
199	0xc0efd095	-7.4942117
200	0xc06585bd	-3.5862877
201	0xc0a3e269	-5.121388
202	0xc0c98a4d	-6.2981324
203	0xc0b6c07e	-5.7109976
204	0xc0b8546f	-5.760307
205	0xc0d28171	-6.578301
206	0xc0ef4bc7	-7.478
207	0xc0d3b2c2	-6.615571
208	0xc0cb2d9c	-6.3493176
209	0xc0ca8b1a	-6.32948
210	0xc0c23c4d	-6.069861
211	0xc0d06fed	-6.513663
212	0xc0c5caaa	-6.1809893
213	0xc0d4e2df	-6.652694
214	0xc0e98a8b	-7.298162
215	0xc0e5f633	-7.1863036
216	0xc0dbdcca	-6.870702
217	0xc0da8a09	-6.82935
218	0xc0cc6c41	-6.3882146
219	0xc0d36b47	-6.6068454
220	0xc0cfdfad	-6.496054
221	0xc0c327ca	-6.098607
222	0xc0ca813e	-6.3282766
223	0xc0bffa2d	-5.999289
224	0xc0cd0584	-6.4069233
225	0xc0bfe135	-5.996241
226	0xc0bdc555	-5.9303384
227	0xc0bc480a	-5.883794
228	0xc0b74f26	-5.7284117
229	0xc0aff315	-5.498423
230	0xc0aade06	-5.3396025
231	0xc0b2798c	-5.5773373
232	0xc0a6af00	-5.2088623
233	0xc0a5d971	-5.182793
234	0xc0aba2eb	-5.3636374
235	0xc0adaa02	-5.427003
236	0xc0b50ff0	-5.6581955
237	0xc09fc1f8	-4.992428
238	0xc09ee1a7	-4.9650455
239	0xc093c7ba	-4.6181307
240	0xc08f0472	-4.4692926
241	0xc0964a6a	-4.6965837
242	0xc09773e0	-4.732895
243	0xc097b2b5	-4.740565
244	0xc0941973	-4.6281066
245	0xc093d98b	-4.6203055
246	0xc096c291	-4.711251
247	0xc0968e85	-4.7048974
248	0xc09ef1e7	-4.967029
249	0xc0a3efe8	-5.1230354
250	0xc09d2685	-4.910952
251	0xc0a761f6	-5.230708
252	0xc0ab2b9e	-5.3490744
253	0xc0b451bd	-5.634978
254	0xc0afb9be	-5.4914236
255	0xc0b49096	-5.6426497
